Policy Gradient Methods/REINFORCE/checkpoint1.pth (torch_old, 1278 bytes, 4 tensors)

fc1.weight f4 [16, 4]
00000000: 925f 133d 1676 b93d dd25 d73c 7995 013e
00000010: 944d 1ebe 9a9e 9c3e b9d3 78bd b059 e03e
00000020: 68b2 acbd e043 1e3b 3081 02c0 f67c 4bbf
00000030: 996b 5bbf fb37 9bbd 496b 833f 128a d33e
00000040: 8dfe 3cbe f6fa 23bf 84b8 c8bf 4ac6 4ebe
00000050: 9be2 843e e9b1 3e3f cd26 0440 8b36 673f
00000060: 6c0f 973e cee6 183e ff1c 93be 6ed3 0dbf
00000070: f6d5 37bf 1689 6cbe 8e6e 453d 0019 ef3e
00000080: 70e6 46be ac12 16bf 3d65 12c0 99cd 51bf
00000090: 852b af3d 976c 3f3f 338b 0d40 b47f 613f
000000a0: 3034 ed3c 8c78 19bf 03a4 f7bf 495f 83bf
000000b0: d4b0 14be cae4 de3d f648 5e3f ed57 763e
000000c0: 0c88 513e ce8a e03e 819d c63f f912 0b3f
000000d0: af74 a43e 52e6 c1bc 606d c2bb b0c7 8abe
000000e0: 3ac3 8fbe a9bb aebe 3122 18bc c6b0 97be
000000f0: 5ce4 633f f317 be3e a7d4 3a3f e92a 473f
0.035979815 0.09055726 0.026263172 0.12654676 -0.15459281 0.30589753 -0.06074879 0.43818426
-0.08432466 0.0024149343 -2.039135 -0.7948755 -0.85711056 -0.07579037 1.0267116 0.41316277
-0.18456478 -0.6405481 -1.568131 -0.20192829 0.25954136 0.7449022 2.0648682 0.903176
0.29503953 0.14931795 -0.2873306 -0.5540074 -0.71810853 -0.23099169 0.048201136 0.4669876
-0.19423842 -0.5862224 -2.287429 -0.8195434 0.085532226 0.7477507 2.211621 0.88085485
0.028955549 -0.59949565 -1.9346927 -1.0263454 -0.1452058 0.10883482 0.8683008 0.24056979
0.20462054 0.438559 1.5516816 0.54325825 0.32120273 -0.023669396 -0.0059334487 -0.27105474
-0.28078634 -0.34127548 -0.009285496 -0.29627055 0.89020324 0.37127647 0.7298073 0.7779985

fc1.bias f4 [16]
00000000: 8960 06be 2343 83be 6cb4 0abe e909 043d
00000010: 2ebe fabd 5623 013f 976e d9be 5309 8abe
00000020: c2e0 e13e 59b8 ea3e e8c4 f13e 14bb 133d
00000030: ece0 5f3e bef4 09bf 9a7c 20bf 29e4 efbc
-0.13122763 -0.2563716 -0.13545388 0.032236014 -0.12243305 0.50444543 -0.42467186 -0.2696024
0.4411679 0.4584377 0.4722054 0.036067083 0.21863145 -0.5388907 -0.62690127 -0.0292836

fc2.weight f4 [2, 16]
00000000: a4a8 a4bd 6c47 0c3e e4b8 213f 7687 81be
00000010: 998f e13e aad3 0abf 4745 983d 8a27 493d
00000020: ed5d 203f 4b8a 37bf a3f0 023f c57a 82bd
00000030: b8a9 47be 93bd e43d cbf7 8ebe 043a 1fbf
00000040: 1669 e3bc 97c1 0c3e 0dfc 22bf e3b7 0fbe
00000050: d55f 22be 782b 2b3f a0e2 65be c0e7 67be
00000060: b8b8 44bf 837b 103f 81ac 1bbf 4c0c 31bb
00000070: 0769 b83e 684e 9e3c 568d 90bd a7af 1b3f
-0.08039978 0.1369912 0.63172746 -0.2529866 0.4405487 -0.54229224 0.074350886 0.049109973
0.6264332 -0.71695393 0.5114843 -0.06371073 -0.19498336 0.11168971 -0.27923426 -0.621979
-0.02776007 0.13745724 -0.6366585 -0.14034991 -0.1585687 0.66863203 -0.22449732 -0.22647
-0.7684436 0.56438464 -0.60810095 -0.0027015386 0.3601763 0.019324496 -0.07058208 0.608149

fc2.bias f4 [2]
00000000: 2cd6 8fbd 4a6b 143e
-0.07023272 0.14494053
