Black Box Optimization Methods/SteepestHillClimbing/checkpoint1.pth (torch_old, 1726 bytes, 4 tensors)

fc1.weight f4 [32, 4]
0	0xba3acd28	-0.00071259076
1	0x3c4192fb	0.011814828
2	0x3ccab1be	0.024742957
3	0x3c145c51	0.009055213
4	0xbc771249	-0.015080043
5	0xbc336d9c	-0.010951426
6	0x3d116965	0.035500903
7	0x3c3e71a7	0.0116237765
8	0xbc927abf	-0.017880796
9	0xbd032160	-0.03201425
10	0xbaf5def3	-0.0018758461
11	0xbc848765	-0.016177842
12	0xbc50e2f8	-0.012749426
13	0x3ccb0254	0.024781384
14	0x3cca0360	0.024659812
15	0xbbc7d5b9	-0.006098476
16	0xbd03fcac	-0.03222339
17	0xbc8f435f	-0.01748818
18	0x3b3bf000	0.0028676987
19	0x3bd45f60	0.006481096
20	0x3c8382ea	0.016053636
21	0x3ae17fac	0.0017204187
22	0x3b039a1b	0.0020080868
23	0x3cc6a3f0	0.024248093
24	0x3c9e942c	0.019357763
25	0x3ccc11f1	0.024910899
26	0xbcd6d1b7	-0.026223047
27	0x3945eb44	0.00018875027
28	0xbc40672c	-0.011743348
29	0xbb160056	-0.0022888384
30	0xbc884b3d	-0.016637439
31	0x3c82aac1	0.015950562
32	0x3c2ebf75	0.010665764
33	0x3c96df11	0.018416913
34	0x3b3a7dc6	0.0028456314
35	0xbb8a9ab0	-0.004229866
36	0xbd0aa4ae	-0.033848457
37	0xbc88a327	-0.01667936
38	0x3b9edf6f	0.0048484127
39	0x3ca9406c	0.020660602
40	0xbbe393fe	-0.0069451323
41	0x3d19b76a	0.037528433
42	0xb8431b2b	-4.6516925e-05
43	0xbc67beb2	-0.014144586
44	0xbcf05dfd	-0.029341692
45	0xbd252a8c	-0.04032378
46	0x3c1fc552	0.009751635
47	0x3b243e1b	0.0025061432
48	0xbbaa5781	-0.0051984196
49	0x3bc55b5c	0.006022854
50	0xbceef58b	-0.029169818
51	0x3c8f7b01	0.017514708
52	0x3c921baf	0.017835466
53	0xbbe1b2cd	-0.00688777
54	0x3c083a0a	0.008314619
55	0x3c90ee75	0.01769183
56	0x3c6467ee	0.013940794
57	0xbcfcc4c4	-0.030855544
58	0x3c53781c	0.012907054
59	0x3d28af87	0.04118302
60	0xbbee3e82	-0.007270635
61	0xbcbb1138	-0.022835359
62	0x3cf4431c	0.029817156
63	0x3c908f04	0.01764632
64	0x3c9e84fa	0.019350518
65	0xbbb7c26a	-0.0056078928
66	0xbcd7e1f3	-0.026352858
67	0x3a92616e	0.0011167952
68	0xbc2726e6	-0.010202145
69	0xbbf68602	-0.007523299
70	0x3ca2abd8	0.019857332
71	0x3b95c34d	0.004570401
72	0x3d2cf4df	0.042225715
73	0xbc517b57	-0.012785754
74	0x3cd64da2	0.026160065
75	0x3caa02fc	0.020753376
76	0x3c9eaae7	0.019368602
77	0x3a8c8956	0.0010722082
78	0x3cbd80d5	0.023132721
79	0xb95cd8d5	-0.00021061611
80	0x3a94e509	0.0011359762
81	0x3be0038f	0.0068363617
82	0x3867547b	5.515337e-05
83	0x3ca984d6	0.020693224
84	0x3c2b0b25	0.010439669
85	0xbbb6b8d9	-0.005576235
86	0xbc7b85e6	-0.015351748
87	0xbc8b68df	-0.01701778
88	0x3d30de9a	0.04318104
89	0xbc3b3ce9	-0.011428096
90	0xbd0142f6	-0.031558
91	0x3d409637	0.047018256
92	0xba9f51a6	-0.001215507
93	0xbbf3c224	-0.007438915
94	0x3c75f319	0.015011572
95	0xbc463de1	-0.012099714
96	0x3c57a431	0.013161705
97	0x3a87cfd9	0.0010361626
98	0x3d05236b	0.03250448
99	0x3c839427	0.016061855
100	0x39ad77f9	0.00033086518
101	0x3c56cfbc	0.013111051
102	0x3c0936ac	0.008374851
103	0x3cc758c7	0.024334325
104	0x3bd15d78	0.006389316
105	0xbce5d63d	-0.028056258
106	0xbcd45b06	-0.02592231
107	0x3be5fdba	0.007018772
108	0x3be65bcd	0.0070299865
109	0xbb9f3993	-0.0048591583
110	0x3ccac4d7	0.024752064
111	0x3adf3a21	0.0017030874
112	0x3cfeda0c	0.031109832
113	0xbabdc54e	-0.0014478357
114	0xbc8c39ac	-0.017117344
115	0x3ca19228	0.019723013
116	0xbbc9a297	-0.0061534154
117	0x3c60bd94	0.013717074
118	0x3c64c571	0.013963089
119	0xbbce51ac	-0.006296357
120	0x3cf7fb54	0.03027121
121	0x3ba92153	0.0051614433
122	0x3acd0310	0.0015641171
123	0xbaa33078	-0.0012450358
124	0xbcc120ee	-0.023575272
125	0x3d3216d3	0.043478798
126	0xbc0ea3c5	-0.008706038
127	0x3cc207db	0.023685386

fc1.bias f4 [32]
0	0x3c6fce80	0.014636636
1	0xbaa16c3c	-0.0012315582
2	0x3c422754	0.011850197
3	0xbc097700	-0.008390188
4	0x3c974dba	0.01846968
5	0xbb8bd24a	-0.004267012
6	0xbb76d726	-0.003766486
7	0x3d1b94bf	0.037983652
8	0xba838307	-0.0010033556
9	0x3cfad64b	0.030619761
10	0xbbaeff27	-0.005340475
11	0x3896feee	7.200042e-05
12	0x3c823783	0.01589561
13	0x3b2c0f7c	0.0026254347
14	0x3c287ad7	0.010283194
15	0xbd398f93	-0.04530294
16	0xbc82e43e	-0.015977975
17	0x3ca4db6b	0.020124158
18	0x3c605a8d	0.013693464
19	0xbc22cf25	-0.009937082
20	0xbc87725f	-0.016534029
21	0x3c8c2875	0.017109135
22	0x3ceee5bd	0.029162282
23	0x3b58dfa4	0.0033092285
24	0x3d1bf193	0.03807218
25	0xbd24e41e	-0.040256612
26	0xbbca55e8	-0.0061747916
27	0x3bf8553e	0.007578521
28	0x3ca3db5d	0.020002062
29	0xbc8157d4	-0.01578895
30	0xbcd0fca4	-0.025511093
31	0x38f04bff	0.00011458247

fc2.weight f4 [2, 32]
0	0xbd7ac5d7	-0.06122383
1	0xb9d5992b	-0.00040740645
2	0xbb2e435e	-0.0026590447
3	0xbbe23b8d	-0.0069040717
4	0xbc1a0b6b	-0.009402136
5	0x3c41bae8	0.011824347
6	0x3ca32aa7	0.0199178
7	0xbca5d0a3	-0.020241087
8	0x3a8fa346	0.0010958693
9	0x3c51f23c	0.012814101
10	0xbb8c7e77	-0.0042875367
11	0x3bc8fe3a	0.006133822
12	0xbc97100b	-0.018440267
13	0xbd287080	-0.041122913
14	0x38a04cad	7.6436765e-05
15	0x3b3eea49	0.0029131344
16	0x3bf8a7b2	0.00758835
17	0xbb35aef2	-0.0027722684
18	0xbd063abb	-0.032770853
19	0x3cac1342	0.021005277
20	0xbc055f2b	-0.008140366
21	0xbb0d937e	-0.0021602805
22	0x3bbd7360	0.005781576
23	0xbad8b2fe	-0.0016532836
24	0xbcb8e7a2	-0.022571389
25	0x3bf07720	0.0073384196
26	0xbaa9ff42	-0.001296975
27	0xbd11c4dc	-0.03558813
28	0xbd1c2bb7	-0.038127627
29	0xbbcc01ed	-0.0062258155
30	0x3be2a9d4	0.0069172177
31	0xbc8d5bcf	-0.017255692
32	0xbb717518	-0.0036843475
33	0x3b806238	0.0039179586
34	0xbc7a41ed	-0.015274507
35	0xbb1ae57d	-0.002363532
36	0xbcba995c	-0.022778206
37	0xba08dd41	-0.00052209577
38	0x3c31564d	0.010823798
39	0x3a658c48	0.000875656
40	0xbba10c8e	-0.0049148267
41	0x3c2ac1d1	0.010422186
42	0x3be219ba	0.0069000395
43	0xbab7b1e8	-0.0014014812
44	0xbc3d0d24	-0.0115387775
45	0xbbcc5397	-0.0062355506
46	0x3c9dc703	0.019259935
47	0xbd0498b5	-0.032372195
48	0xbc958f0e	-0.01825669
49	0x3c5af867	0.013364888
50	0xbcf111bc	-0.029427402
51	0xbc2cf8a4	-0.010557327
52	0x3ce1ee4d	0.027579451
53	0xbc0dca77	-0.008654228
54	0xbd08cfe8	-0.0334014
55	0x3b3e5c71	0.0029046799
56	0x3cda1e10	0.026625663
57	0x3b19d671	0.0023473764
58	0xbaa04f40	-0.001223065
59	0xbcabcbe6	-0.02097125
60	0x3c0efabd	0.008726773
61	0x3cd1a3f4	0.025590874
62	0x3c567615	0.013089676
63	0x3c2c86b2	0.010530161

fc2.bias f4 [2]
0	0xb8ee4c88	-0.000113629794
1	0xbb671ba9	-0.003526429
